JupyterPythonProejct/00.论文课题/test.pt (torch_old, 1964 bytes, 4 tensors)

weight f4 [3, 1, 3, 3]
0	0xbdad6836	-0.08467142
1	0x3defb2bc	0.11704013
2	0xbd4191c8	-0.04725817
3	0xbc3d4000	-0.011550903
4	0xbe6cfd3e	-0.23143479
5	0xbc9d1dd0	-0.019179255
6	0x3d9d930c	0.076940626
7	0x3e7fdae6	0.24985847
8	0x3e4eeec2	0.20208266
9	0x3e2abc8e	0.1667349
10	0xbe82e1b4	-0.25562823
11	0x3ea74aad	0.3267416
12	0xbe6c6360	-0.23084784
13	0xbe45e7f0	-0.19326758
14	0x3cb7ab50	0.022420555
15	0x3db67724	0.08909443
16	0x3e2aa9b2	0.16666296
17	0x3e493252	0.19648102
18	0x3e215c2a	0.15757814
19	0x3e811cfd	0.2521743
20	0x3e81e6c3	0.2537137
21	0xbdfdcf7c	-0.1239309
22	0xbc6f8a00	-0.014620304
23	0x3e8d9523	0.27652845
24	0x3d84b0bc	0.06479022
25	0x3dcdcb14	0.100485
26	0x3ea7f735	0.32805791

bias f4 [3]
0	0xbe7011e8	-0.2344433
1	0xbd4bdb00	-0.0497694
2	0x3e3ec7b6	0.18630871

weight f4 [3, 2, 3, 3]
0	0xbd12cba8	-0.035838753
1	0x3e668b9b	0.22514193
2	0x3e21a121	0.15784122
3	0x3e1489df	0.14505719
4	0x3e50b055	0.20379765
5	0x3dfd7822	0.12376429
6	0x3d7895d4	0.060689762
7	0xbe619cff	-0.22032546
8	0xbe22c2bf	-0.15894602
9	0x3e40be73	0.1882265
10	0xbc1ccd20	-0.00957039
11	0xbe5c9490	-0.21541047
12	0x3d747154	0.05967839
13	0x3e5fd1a9	0.21857323
14	0xbdf26117	-0.11834925
15	0x3e13320d	0.14374562
16	0x3ccd0088	0.025024667
17	0xbe6307fd	-0.22171016
18	0xbd8a72cc	-0.06760177
19	0xbdcc830a	-0.09985931
20	0x3e205b9b	0.15659945
21	0xbc9d22e8	-0.019181684
22	0x3e6f9dd3	0.23400049
23	0x3e09a58b	0.13442056
24	0xbe4a0a1d	-0.1973042
25	0x3e596709	0.21230711
26	0xbdf39cc2	-0.118951336
27	0xbe51ce6e	-0.20488903
28	0x3e3d6daf	0.18498872
29	0x3d0a5fcc	0.033782765
30	0x3d6b10f4	0.057389215
31	0xbdebbdf5	-0.11510841
32	0x3dcecee6	0.100980565
33	0xbe6ca10f	-0.23108314
34	0x3d9b8c9a	0.07595177
35	0xbdc51898	-0.096238315
36	0x3dd4caea	0.10390265
37	0xbd449a80	-0.047998905
38	0xbc7f8960	-0.015596718
39	0x3d13869c	0.036017045
40	0xbd0a9cb0	-0.033840835
41	0xbd4e7a54	-0.05040963
42	0x3dce54da	0.10074778
43	0xbd6cad08	-0.057782203
44	0xbd9bc7bc	-0.07606456
45	0xbde6cc44	-0.11269429
46	0xbd071d38	-0.03298685
47	0xbe57e67b	-0.21084015
48	0x3e322635	0.17397387
49	0x3d7868b4	0.060646728
50	0x3e06f343	0.13178734
51	0x3e185ab3	0.14878349
52	0xbd61eba0	-0.05515635
53	0xbe097573	-0.1342371

bias f4 [3]
0	0xbcd8e590	-0.026476651
1	0x3e2f8b8b	0.17143075
2	0xbe52fd8f	-0.20604537
